…
    (1): EmbeddingBag(1382, 128, mode=sum)
    (2): EmbeddingBag(63, 128, mode=sum)
    (3): EmbeddingBag(11, 128, mode=sum)
    (4): EmbeddingBag(104, 128, mode=sum)
    (5): EmbeddingBag(4, 128, mode=sum)
    (6): EmbeddingBag(968, 128, mode=sum)
    (7): EmbeddingBag(15, 128, mode=sum)
    (8): EmbeddingBag(97, 128, mode=sum)
    (9): EmbeddingBag(35, 128, mode=sum)
  )
  (emb_sparse): ModuleList(
    (0): EmbeddingBag(20046, 128, mode=sum)
    (1): EmbeddingBag(7105, 128, mode=sum)
    (2): EmbeddingBag(5554114, 128, mode=sum)
    (3): EmbeddingBag(582469, 128, mode=sum)
  )
  (bot_l): Sequential(
    (0): Linear(in_features=13, out_features=512, bias=True)
    (1): ReLU()
    (2): Linear(in_features=512, out_features=256, bias=True)
    (3): ReLU()
    (4): Linear(in_features=256, out_features=128, bias=True)
    (5): ReLU()
  )
  (top_l): Sequential(
    (0): Linear(in_features=480, out_features=1024, bias=True)
    (1): ReLU()
    (2): Linear(in_features=1024, out_features=1024, bias=True)
    (3): ReLU()
    (4): Linear(in_features=1024, out_features=512, bias=True)
    (5): ReLU()
    (6): Linear(in_features=512, out_features=256, bias=True)
    (7): ReLU()
    (8): Linear(in_features=256, out_features=1, bias=True)
    (9): Sigmoid()
  )
) dpcpp True
Model created!
DLRM_Net(
  (emb_dense): ModuleList(
    (0): EmbeddingBag(4, 128, mode=sum)
    (1): EmbeddingBag(1382, 128, mode=sum)
    (2): EmbeddingBag(63, 128, mode=sum)
    (3): EmbeddingBag(11, 128, mode=sum)
    (4): EmbeddingBag(104, 128, mode=sum)
    (5): EmbeddingBag(4, 128, mode=sum)
    (6): EmbeddingBag(968, 128, mode=sum)
    (7): EmbeddingBag(15, 128, mode=sum)
    (8): EmbeddingBag(97, 128, mode=sum)
    (9): EmbeddingBag(35, 128, mode=sum)
  )
  (emb_sparse): ModuleList(
    (0): EmbeddingBag(7912889, 128, mode=sum)
    (1): EmbeddingBag(33823, 128, mode=sum)
    (2): EmbeddingBag(17139, 128, mode=sum)
    (3): EmbeddingBag(7339, 128, mode=sum)
  )
  (bot_l): Sequential(
    (0): Linear(in_features=13, out_features=512, bias=True)
    (1): ReLU()
    (2): Linear(in_features=512, out_features=256, bias=True)
    (3): ReLU()
    (4): Linear(in_features=256, out_features=128, bias=True)
    (5): ReLU()
  )
  (top_l): Sequential(
    (0): Linear(in_features=480, out_features=1024, bias=True)
    (1): ReLU()
    (2): Linear(in_features=1024, out_features=1024, bias=True)
    (3): ReLU()
    (4): Linear(in_features=1024, out_features=512, bias=True)
    (5): ReLU()
    (6): Linear(in_features=512, out_features=256, bias=True)
    (7): ReLU()
    (8): Linear(in_features=256, out_features=1, bias=True)
    (9): Sigmoid()
  )
) dpcpp True
Model created!
DLRM_Net(
  (emb_dense): ModuleList(
    (0): EmbeddingBag(4, 128, mode=sum)
    (1): EmbeddingBag(1382, 128, mode=sum)
    (2): EmbeddingBag(63, 128, mode=sum)
    (3): EmbeddingBag(11, 128, mode=sum)
    (4): EmbeddingBag(104, 128, mode=sum)
    (5): EmbeddingBag(4, 128, mode=sum)
    (6): EmbeddingBag(968, 128, mode=sum)
    (7): EmbeddingBag(15, 128, mode=sum)
    (8): EmbeddingBag(97, 128, mode=sum)
    (9): EmbeddingBag(35, 128, mode=sum)
  )
  (emb_sparse): ModuleList(
    (0): EmbeddingBag(245828, 128, mode=sum)
    (1): EmbeddingBag(2209, 128, mode=sum)
    (2): EmbeddingBag(10667, 128, mode=sum)
    (3): EmbeddingBag(8165896, 128, mode=sum)
  )
  (bot_l): Sequential(
    (0): Linear(in_features=13, out_features=512, bias=True)
    (1): ReLU()
    (2): Linear(in_features=512, out_features=256, bias=True)
    (3): ReLU()
    (4): Linear(in_features=256, out_features=128, bias=True)
    (5): ReLU()
  )
  (top_l): Sequential(
    (0): Linear(in_features=480, out_features=1024, bias=True)
    (1): ReLU()
    (2): Linear(in_features=1024, out_features=1024, bias=True)
    (3): ReLU()
    (4): Linear(in_features=1024, out_features=512, bias=True)
    (5): ReLU()
    (6): Linear(in_features=512, out_features=256, bias=True)
    (7): ReLU()
    (8): Linear(in_features=256, out_features=1, bias=True)
    (9): Sigmoid()
  )
) dpcpp True
Model created!
DLRM_Net(
  (emb_dense): ModuleList(
    (0): EmbeddingBag(4, 128, mode=sum)
    (1): EmbeddingBag(1382, 128, mode=sum)
    (2): EmbeddingBag(63, 128, mode=sum)
    (3): EmbeddingBag(11, 128, mode=sum)
    (4): EmbeddingBag(104, 128, mode=sum)
    (5): EmbeddingBag(4, 128, mode=sum)
    (6): EmbeddingBag(968, 128, mode=sum)
    (7): EmbeddingBag(15, 128, mode=sum)
    (8): EmbeddingBag(97, 128, mode=sum)
    (9): EmbeddingBag(35, 128, mode=sum)
  )
  (emb_sparse): ModuleList(
    (0): EmbeddingBag(2675940, 128, mode=sum)
    (1): EmbeddingBag(7156453, 128, mode=sum)
    (2): EmbeddingBag(302516, 128, mode=sum)
    (3): EmbeddingBag(12022, 128, mode=sum)
  )
  (bot_l): Sequential(
    (0): Linear(in_features=13, out_features=512, bias=True)
    (1): ReLU()
    (2): Linear(in_features=512, out_features=256, bias=True)
    (3): ReLU()
    (4): Linear(in_features=256, out_features=128, bias=True)
    (5): ReLU()
  )
  (top_l): Sequential(
    (0): Linear(in_features=480, out_features=1024, bias=True)
    (1): ReLU()
    (2): Linear(in_features=1024, out_features=1024, bias=True)
    (3): ReLU()
    (4): Linear(in_features=1024, out_features=512, bias=True)
    (5): ReLU()
    (6): Linear(in_features=512, out_features=256, bias=True)
    (7): ReLU()
    (8): Linear(in_features=256, out_features=1, bias=True)
    (9): Sigmoid()
  )
) dpcpp True
:::MLLOG {"namespace": "", "time_ms": 1606551111672, "event_type": "POINT_IN_TIME", "key": "submission_benchmark", "value": "dlrm", "metadata": {"file": "/home/xianyang/BlueWhale-poc/mlperf2/dlrm2/dlrm3/mlperf_logger.py", "lineno": 88}}
:::MLLOG {"namespace": "", "time_ms": 1606551111673, "event_type": "POINT_IN_TIME", "key": "submission_org", "value": "reference_implementation", "metadata": {"file": "/home/xianyang/BlueWhale-poc/mlperf2/dlrm2/dlrm3/mlperf_logger.py", "lineno": 93}}
…
    (5): EmbeddingBag(4, 128, mode=sum)
    (6): EmbeddingBag(968, 128, mode=sum)
    (7): EmbeddingBag(15, 128, mode=sum)
    (8): EmbeddingBag(97, 128, mode=sum)
    (9): EmbeddingBag(35, 128, mode=sum)
  )
  (emb_sparse): ModuleList(
    (0): EmbeddingBag(7912889, 128, mode=sum)
    (1): EmbeddingBag(33823, 128, mode=sum)
    (2): EmbeddingBag(17139, 128, mode=sum)
    (3): EmbeddingBag(7339, 128, mode=sum)
    (4): EmbeddingBag(20046, 128, mode=sum)
    (5): EmbeddingBag(7105, 128, mode=sum)
    (6): EmbeddingBag(5554114, 128, mode=sum)
    (7): EmbeddingBag(582469, 128, mode=sum)
  )
  (bot_l): Sequential(
    (0): Linear(in_features=13, out_features=512, bias=True)
    (1): ReLU()
    (2): Linear(in_features=512, out_features=256, bias=True)
    (3): ReLU()
    (4): Linear(in_features=256, out_features=128, bias=True)
    (5): ReLU()
  )
  (top_l): Sequential(
    (0): Linear(in_features=480, out_features=1024, bias=True)
    (1): ReLU()
    (2): Linear(in_features=1024, out_features=1024, bias=True)
    (3): ReLU()
    (4): Linear(in_features=1024, out_features=512, bias=True)
    (5): ReLU()
    (6): Linear(in_features=512, out_features=256, bias=True)
    (7): ReLU()
    (8): Linear(in_features=256, out_features=1, bias=True)
    (9): Sigmoid()
  )
) dpcpp True
Model created!
DLRM_Net(
  (emb_dense): ModuleList(
    (0): EmbeddingBag(4, 128, mode=sum)
    (1): EmbeddingBag(1382, 128, mode=sum)
    (2): EmbeddingBag(63, 128, mode=sum)
    (3): EmbeddingBag(11, 128, mode=sum)
    (4): EmbeddingBag(104, 128, mode=sum)
    (5): EmbeddingBag(4, 128, mode=sum)
    (6): EmbeddingBag(968, 128, mode=sum)
…
    (5): EmbeddingBag(4, 128, mode=sum)
    (6): EmbeddingBag(976, 128, mode=sum)
    (7): EmbeddingBag(14, 128, mode=sum)
    (8): EmbeddingBag(108, 128, mode=sum)
    (9): EmbeddingBag(36, 128, mode=sum)
  )
  (emb_sparse): ModuleList(
    (0): EmbeddingBag(39884406, 128, mode=sum)
    (1): EmbeddingBag(39043, 128, mode=sum)
    (2): EmbeddingBag(17289, 128, mode=sum)
    (3): EmbeddingBag(7420, 128, mode=sum)
    (4): EmbeddingBag(20263, 128, mode=sum)
    (5): EmbeddingBag(7120, 128, mode=sum)
    (6): EmbeddingBag(38532951, 128, mode=sum)
    (7): EmbeddingBag(2953546, 128, mode=sum)
  )
  (bot_l): Sequential(
    (0): Linear(in_features=13, out_features=512, bias=True)
    (1): ReLU()
    (2): Linear(in_features=512, out_features=256, bias=True)
    (3): ReLU()
    (4): Linear(in_features=256, out_features=128, bias=True)
    (5): ReLU()
  )
  (top_l): Sequential(
    (0): Linear(in_features=479, out_features=1024, bias=True)
    (1): ReLU()
    (2): Linear(in_features=1024, out_features=1024, bias=True)
    (3): ReLU()
    (4): Linear(in_features=1024, out_features=512, bias=True)
    (5): ReLU()
    (6): Linear(in_features=512, out_features=256, bias=True)
    (7): ReLU()
    (8): Linear(in_features=256, out_features=1, bias=True)
    (9): Sigmoid()
  )
) dpcpp True
Model created!
DLRM_Net(
  (emb_dense): ModuleList(
    (0): EmbeddingBag(3, 128, mode=sum)
    (1): EmbeddingBag(1543, 128, mode=sum)
    (2): EmbeddingBag(63, 128, mode=sum)
    (3): EmbeddingBag(10, 128, mode=sum)
    (4): EmbeddingBag(155, 128, mode=sum)
    (5): EmbeddingBag(4, 128, mode=sum)
    (6): EmbeddingBag(976, 128, mode=sum)
…
    (1): EmbeddingBag(1382, 128, mode=sum)
    (2): EmbeddingBag(63, 128, mode=sum)
    (3): EmbeddingBag(11, 128, mode=sum)
    (4): EmbeddingBag(104, 128, mode=sum)
    (5): EmbeddingBag(4, 128, mode=sum)
    (6): EmbeddingBag(968, 128, mode=sum)
    (7): EmbeddingBag(15, 128, mode=sum)
    (8): EmbeddingBag(97, 128, mode=sum)
    (9): EmbeddingBag(35, 128, mode=sum)
  )
  (emb_sparse): ModuleList(
    (0): EmbeddingBag(20046, 128, mode=sum)
    (1): EmbeddingBag(7105, 128, mode=sum)
    (2): EmbeddingBag(5554114, 128, mode=sum)
    (3): EmbeddingBag(582469, 128, mode=sum)
  )
  (bot_l): Sequential(
    (0): BatchNorm1d(13, eps=1e-05, momentum=0.1, affine=True, track_running_stats=True)
    (1): Linear(in_features=13, out_features=512, bias=True)
    (2): ReLU()
    (3): Linear(in_features=512, out_features=256, bias=True)
    (4): ReLU()
    (5): Linear(in_features=256, out_features=128, bias=True)
    (6): ReLU()
  )
  (top_l): Sequential(
    (0): BatchNorm1d(480, eps=1e-05, momentum=0.1, affine=True, track_running_stats=True)
    (1): Linear(in_features=480, out_features=1024, bias=True)
    (2): ReLU()
    (3): Linear(in_features=1024, out_features=1024, bias=True)
    (4): ReLU()
    (5): Linear(in_features=1024, out_features=512, bias=True)
    (6): ReLU()
    (7): Linear(in_features=512, out_features=256, bias=True)
    (8): ReLU()
    (9): Linear(in_features=256, out_features=1, bias=True)
    (10): Sigmoid()
  )
) dpcpp True
Model created!
DLRM_Net(
  (emb_dense): ModuleList(
    (0): EmbeddingBag(4, 128, mode=sum)
    (1): EmbeddingBag(1382, 128, mode=sum)
    (2): EmbeddingBag(63, 128, mode=sum)
    (3): EmbeddingBag(11, 128, mode=sum)
    (4): EmbeddingBag(104, 128, mode=sum)
    (5): EmbeddingBag(4, 128, mode=sum)
    (6): EmbeddingBag(968, 128, mode=sum)
    (7): EmbeddingBag(15, 128, mode=sum)
    (8): EmbeddingBag(97, 128, mode=sum)
    (9): EmbeddingBag(35, 128, mode=sum)
  )
  (emb_sparse): ModuleList(
    (0): EmbeddingBag(245828, 128, mode=sum)
    (1): EmbeddingBag(2209, 128, mode=sum)
    (2): EmbeddingBag(10667, 128, mode=sum)
    (3): EmbeddingBag(8165896, 128, mode=sum)
  )
  (bot_l): Sequential(
    (0): BatchNorm1d(13, eps=1e-05, momentum=0.1, affine=True, track_running_stats=True)
    (1): Linear(in_features=13, out_features=512, bias=True)
    (2): ReLU()
    (3): Linear(in_features=512, out_features=256, bias=True)
    (4): ReLU()
    (5): Linear(in_features=256, out_features=128, bias=True)
    (6): ReLU()
  )
  (top_l): Sequential(
    (0): BatchNorm1d(480, eps=1e-05, momentum=0.1, affine=True, track_running_stats=True)
    (1): Linear(in_features=480, out_features=1024, bias=True)
    (2): ReLU()
    (3): Linear(in_features=1024, out_features=1024, bias=True)
    (4): ReLU()
    (5): Linear(in_features=1024, out_features=512, bias=True)
    (6): ReLU()
    (7): Linear(in_features=512, out_features=256, bias=True)
    (8): ReLU()
    (9): Linear(in_features=256, out_features=1, bias=True)
    (10): Sigmoid()
  )
) dpcpp True
Model created!
DLRM_Net(
  (emb_dense): ModuleList(
    (0): EmbeddingBag(4, 128, mode=sum)
    (1): EmbeddingBag(1382, 128, mode=sum)
    (2): EmbeddingBag(63, 128, mode=sum)
    (3): EmbeddingBag(11, 128, mode=sum)
    (4): EmbeddingBag(104, 128, mode=sum)
    (5): EmbeddingBag(4, 128, mode=sum)
    (6): EmbeddingBag(968, 128, mode=sum)
    (7): EmbeddingBag(15, 128, mode=sum)
    (8): EmbeddingBag(97, 128, mode=sum)
    (9): EmbeddingBag(35, 128, mode=sum)
  )
  (emb_sparse): ModuleList(
    (0): EmbeddingBag(7912889, 128, mode=sum)
    (1): EmbeddingBag(33823, 128, mode=sum)
    (2): EmbeddingBag(17139, 128, mode=sum)
    (3): EmbeddingBag(7339, 128, mode=sum)
  )
  (bot_l): Sequential(
    (0): BatchNorm1d(13, eps=1e-05, momentum=0.1, affine=True, track_running_stats=True)
    (1): Linear(in_features=13, out_features=512, bias=True)
    (2): ReLU()
    (3): Linear(in_features=512, out_features=256, bias=True)
    (4): ReLU()
    (5): Linear(in_features=256, out_features=128, bias=True)
    (6): ReLU()
  )
  (top_l): Sequential(
    (0): BatchNorm1d(480, eps=1e-05, momentum=0.1, affine=True, track_running_stats=True)
    (1): Linear(in_features=480, out_features=1024, bias=True)
    (2): ReLU()
    (3): Linear(in_features=1024, out_features=1024, bias=True)
    (4): ReLU()
    (5): Linear(in_features=1024, out_features=512, bias=True)
    (6): ReLU()
    (7): Linear(in_features=512, out_features=256, bias=True)
    (8): ReLU()
    (9): Linear(in_features=256, out_features=1, bias=True)
    (10): Sigmoid()
  )
) dpcpp True
Model created!
DLRM_Net(
  (emb_dense): ModuleList(
    (0): EmbeddingBag(4, 128, mode=sum)
    (1): EmbeddingBag(1382, 128, mode=sum)
    (2): EmbeddingBag(63, 128, mode=sum)
    (3): EmbeddingBag(11, 128, mode=sum)
    (4): EmbeddingBag(104, 128, mode=sum)
    (5): EmbeddingBag(4, 128, mode=sum)
    (6): EmbeddingBag(968, 128, mode=sum)
    (7): EmbeddingBag(15, 128, mode=sum)
    (8): EmbeddingBag(97, 128, mode=sum)
    (9): EmbeddingBag(35, 128, mode=sum)
  )
  (emb_sparse): ModuleList(
    (0): EmbeddingBag(2675940, 128, mode=sum)
    (1): EmbeddingBag(7156453, 128, mode=sum)
    (2): EmbeddingBag(302516, 128, mode=sum)
    (3): EmbeddingBag(12022, 128, mode=sum)
  )
  (bot_l): Sequential(
    (0): BatchNorm1d(13, eps=1e-05, momentum=0.1, affine=True, track_running_stats=True)
    (1): Linear(in_features=13, out_features=512, bias=True)
    (2): ReLU()
    (3): Linear(in_features=512, out_features=256, bias=True)
    (4): ReLU()
    (5): Linear(in_features=256, out_features=128, bias=True)
    (6): ReLU()
  )
  (top_l): Sequential(
    (0): BatchNorm1d(480, eps=1e-05, momentum=0.1, affine=True, track_running_stats=True)
    (1): Linear(in_features=480, out_features=1024, bias=True)
    (2): ReLU()
    (3): Linear(in_features=1024, out_features=1024, bias=True)
    (4): ReLU()
    (5): Linear(in_features=1024, out_features=512, bias=True)
    (6): ReLU()
    (7): Linear(in_features=512, out_features=256, bias=True)
    (8): ReLU()
    (9): Linear(in_features=256, out_features=1, bias=True)
    (10): Sigmoid()
  )
) dpcpp True
:::MLLOG {"namespace": "", "time_ms": 1606929317213, "event_type": "POINT_IN_TIME", "key": "submission_benchmark", "value": "dlrm", "metadata": {"file": "/home/xianyang/BlueWhale-poc/mlperf2/dlrm2/dlrm3/mlperf_logger.py", "lineno": 88}}
:::MLLOG {"namespace": "", "time_ms": 1606929317215, "event_type": "POINT_IN_TIME", "key": "submission_org", "value": "reference_implementation", "metadata": {"file": "/home/xianyang/BlueWhale-poc/mlperf2/dlrm2/dlrm3/mlperf_logger.py", "lineno": 93}}
…
